Model: "sequential_122"
_________________________________________________________________
Layer (type)                 Output Shape              Param #   
=================================================================
conv1d_80 (Conv1D)           (None, 9, 256)            9216      
_________________________________________________________________
conv1d_81 (Conv1D)           (None, 9, 512)            393728    
_________________________________________________________________
conv1d_82 (Conv1D)           (None, 9, 1024)           1573888   
_________________________________________________________________
conv1d_83 (Conv1D)           (None, 9, 64)             196672    
_________________________________________________________________
max_pooling1d_20 (MaxPooling (None, 3, 64)             0         
_________________________________________________________________
flatten_20 (Flatten)         (None, 192)               0         
_________________________________________________________________
dense_286 (Dense)            (None, 2)                 386       
=================================================================
Total params: 2,173,890
Trainable params: 2,173,890
Non-trainable params: 0
_________________________________________________________________
