Model: "sequential_137"
_________________________________________________________________
Layer (type)                 Output Shape              Param #   
=================================================================
lstm_205 (LSTM)              (None, 9, 3000)           36096000  
_________________________________________________________________
lstm_206 (LSTM)              (None, 512)               7194624   
_________________________________________________________________
dropout_137 (Dropout)        (None, 512)               0         
_________________________________________________________________
dense_320 (Dense)            (None, 32)                16416     
_________________________________________________________________
dense_321 (Dense)            (None, 4)                 132       
=================================================================
Total params: 43,307,172
Trainable params: 43,307,172
Non-trainable params: 0
_________________________________________________________________
