_________________________________________________________________
Layer (type)                 Output Shape              Param #   
=================================================================
conv1d_37 (Conv1D)           (None, 9, 256)            9216      
_________________________________________________________________
conv1d_38 (Conv1D)           (None, 9, 512)            393728    
_________________________________________________________________
conv1d_39 (Conv1D)           (None, 9, 1024)           1573888   
_________________________________________________________________
conv1d_40 (Conv1D)           (None, 9, 64)             196672    
_________________________________________________________________
max_pooling1d_10 (MaxPooling (None, 3, 64)             0         
_________________________________________________________________
flatten_10 (Flatten)         (None, 192)               0         
_________________________________________________________________
dense_10 (Dense)             (None, 4)                 772       
=================================================================
Total params: 2,174,276
Trainable params: 2,174,276
Non-trainable params: 0
_________________________________________________________________
