Model: "sequential_65"
_________________________________________________________________
Layer (type)                 Output Shape              Param #   
=================================================================
lstm_97 (LSTM)               (None, 9, 3000)           36096000  
_________________________________________________________________
lstm_98 (LSTM)               (None, 512)               7194624   
_________________________________________________________________
dropout_65 (Dropout)         (None, 512)               0         
_________________________________________________________________
dense_152 (Dense)            (None, 32)                16416     
_________________________________________________________________
dense_153 (Dense)            (None, 2)                 66        
=================================================================
Total params: 43,307,106
Trainable params: 43,307,106
Non-trainable params: 0
_________________________________________________________________
